…
  - Two CNN models built using Conv2D, MaxPooling2D, Dense, Flatten, Activation, ReLU, and softmax
  - Models trained with and without validation set (validation_split=0.2)
  - Models were trainng for 10 epochs with batch size of 500
  - Model analyses were performed using training and validation set error and accuracy plots.
  - True and Predicted and labels were visualized using confusion matrix.

_________________________________________________________________
Layer (type)                 Output Shape              Param #   
=================================================================
conv2d_14 (Conv2D)           (None, 26, 26, 16)        160       
_________________________________________________________________
activation_13 (Activation)   (None, 26, 26, 16)        0         
_________________________________________________________________
max_pooling2d_7 (MaxPooling2 (None, 13, 13, 16)        0         
_________________________________________________________________
conv2d_15 (Conv2D)           (None, 11, 11, 32)        4640      
_________________________________________________________________
activation_14 (Activation)   (None, 11, 11, 32)        0         
_________________________________________________________________
max_pooling2d_8 (MaxPooling2 (None, 5, 5, 32)          0         
_________________________________________________________________
conv2d_16 (Conv2D)           (None, 3, 3, 64)          18496     
_________________________________________________________________
activation_15 (Activation)   (None, 3, 3, 64)          0         
_________________________________________________________________
flatten_4 (Flatten)          (None, 576)               0         
_________________________________________________________________
dense_7 (Dense)              (None, 128)               73856     
_________________________________________________________________
activation_16 (Activation)   (None, 128)               0         
_________________________________________________________________
dense_8 (Dense)              (None, 10)                1290      
=================================================================
Total params: 98,442
Trainable params: 98,442
Non-trainable params: 0
_________________________________________________________________

Results for model without validation set: 
  Test Error: 2.66%
  Test Accuracy: 99.11%

Results for model with validation set: 
  Test Error: 3.22%
  Test Accuracy: 98.95%

Conlcusion and Comments:
…
